…
rizer=activity_regularizer, **kwargs)2026-02-05 20:46:37.019214: I tensorflow/core/platform/cpu_feature_guard.cc:210] This TensorFlow binary is optimized to use available CPU instructions in performance-critical operations.To enable the following instructions: SSE3 SSE4.1 SSE4.2 AVX AVX2 FMA, in other operations, rebuild TensorFlow with the appropriate compiler flags.Model: sequential┌─────────────────────────────────┬────────────────────────┬───────────────┐│ Layer (type) │ Output Shape │ Param # │├─────────────────────────────────┼────────────────────────┼───────────────┤│ conv2d (Conv2D) │ (None, 30, 30, 32) │ 320 │├─────────────────────────────────┼────────────────────────┼───────────────┤│ batch_normalization │ (None, 30, 30, 32) │ 128 ││ (BatchNormalization) │ │ │├─────────────────────────────────┼────────────────────────┼───────────────┤│ max_pooling2d (MaxPooling2D) │ (None, 15, 15, 32) │ 0 │├─────────────────────────────────┼────────────────────────┼───────────────┤│ conv2d_1 (Conv2D) │ (None, 13, 13, 64) │ 18,496 │├─────────────────────────────────┼────────────────────────┼───────────────┤│ batch_normalization_1 │ (None, 13, 13, 64) │ 256 ││ (BatchNormalization) │ │ │├─────────────────────────────────┼────────────────────────┼───────────────┤│ max_pooling2d_1 (MaxPooling2D) │ (None, 6, 6, 64) │ 0 │├─────────────────────────────────┼────────────────────────┼───────────────┤│ conv2d_2 (Conv2D) │ (None, 4, 4, 128) │ 73,856 │├─────────────────────────────────┼────────────────────────┼───────────────┤│ batch_normalization_2 │ (None, 4, 4, 128) │ 512 ││ (BatchNormalization) │ │ │├─────────────────────────────────┼────────────────────────┼───────────────┤│ max_pooling2d_2 (MaxPooling2D) │ (None, 2, 2, 128) │ 0 │├─────────────────────────────────┼────────────────────────┼───────────────┤│ flatten (Flatten) │ (None, 512) │ 0 │├─────────────────────────────────┼────────────────────────┼───────────────┤│ dense (Dense) │ (None, 256) │ 131,328 │├─────────────────────────────────┼────────────────────────┼───────────────┤│ dropout (Dropout) │ (None, 256) │ 0 │├─────────────────────────────────┼────────────────────────┼───────────────┤│ dense_1 (Dense) │ (None, 64) │ 16,448 │├─────────────────────────────────┼────────────────────────┼───────────────┤│ dropout_1 (Dropout) │ (None, 64) │ 0 │├─────────────────────────────────┼────────────────────────┼───────────────┤│ dense_2 (Dense) │ (None, 5) │ 325 │└─────────────────────────────────┴────────────────────────┴───────────────┘ Total params: 241,669 (944.02 KB) Trainable params: 241,221 (942.27 KB) Non-trainable params: 448 (1.75 KB)Epoch 1/2055/55 ━━━━━━━━━━━━━━━━━━━━ 3s 29ms/step - accuracy: 0.7140 - loss: 1.0157 - val_accuracy: 0.0440 - val_loss: 2.5356Epoch 2/2055/55 ━━━━━━━━━━━━━━━━━━━━ 1s 24ms/step - accuracy: 0.8400 - loss: 0.5609 - val
…
